…
Before proj (PT): torch.Size([1, 3, 224, 224])
After proj (PT): torch.Size([1, 768, 14, 14])
After process input (PT): torch.Size([1, 196, 768]) -> wtf, why 196??
Before encoder(PT): torch.Size([1, 197, 768])
After encoder (PT): torch.Size([1, 197, 768])
Before head (PT): torch.Size([1, 768])
After head (PT): torch.Size([1, 100])

After projection (TF): (1, 14, 14, 768)
Before encoder (TF): (1, 197, 768)
After encoder (TF): (1, 197, 768)
Before head (TF): (1, 768)
After head (TF): (1, 100)


Parameters torchvision vitb:

85.875.556

VisionTransformer(
  (vit_base_16): VisionTransformer(
    (conv_proj): Conv2d(3, 768, kernel_size=(16, 16), stride=(16, 16))
    (encoder): Encoder(
      (dropout): Dropout(p=0.0, inplace=False)
      (layers): Sequential(
        (encoder_layer_0): EncoderBlock(
          (ln_1): LayerNorm((768,), eps=1e-06, elementwise_affine=True)
          (self_attention): MultiheadAttention(
            (out_proj): NonDynamicallyQuantizableLinear(in_features=768, out_features=768, bias=True)
          )
          (dropout): Dropout(p=0.0, inplace=False)
          (ln_2): LayerNorm((768,), eps=1e-06, elementwise_affine=True)
          (mlp): MLPBlock(
            (0): Linear(in_features=768, out_features=3072, bias=True)
            (1): GELU(approximate='none')
            (2): Dropout(p=0.0, inplace=False)
            (3): Linear(in_features=3072, out_features=768, bias=True)
            (4): Dropout(p=0.0, inplace=False)
          )
        )
        (encoder_layer_1): EncoderBlock(
          (ln_1): LayerNorm((768,), eps=1e-06, elementwise_affine=True)
          (self_attention): MultiheadAttention(
            (out_proj): NonDynamicallyQuantizableLinear(in_features=768, out_features=768, bias=True)
          )
          (dropout): Dropout(p=0.0, inplace=False)
          (ln_2): LayerNorm((768,), eps=1e-06, elementwise_affine=True)
          (mlp): MLPBlock(
            (0): Linear(in_features=768, out_features=3072, bias=True)
            (1): GELU(approximate='none')
            (2): Dropout(p=0.0, inplace=False)
            (3): Linear(in_features=3072, out_features=768, bias=True)
            (4): Dropout(p=0.0, inplace=False)
          )
        )
        (encoder_layer_2): EncoderBlock(
          (ln_1): LayerNorm((768,), eps=1e-06, elementwise_affine=True)
          (self_attention): MultiheadAttention(
            (out_proj): NonDynamicallyQuantizableLinear(in_features=768, out_features=768, bias=True)
          )
          (dropout): Dropout(p=0.0, inplace=False)
          (ln_2): LayerNorm((768,), eps=1e-06, elementwise_affine=True)
          (mlp): MLPBlock(
            (0): Linear(in_features=768, out_features=3072, bias=True)
            (1): GELU(approximate='none')
            (2): Dropout(p=0.0, inplace=False)
            (3): Linear(in_features=3072, out_features=768, bias=True)
            (4): Dropout(p=0.0, inplace=False)
          )
        )
        (encoder_layer_3): EncoderBlock(
          (ln_1): LayerNorm((768,), eps=1e-06, elementwise_affine=True)
          (self_attention): MultiheadAttention(
            (out_proj): NonDynamicallyQuantizableLinear(in_features=768, out_features=768, bias=True)
          )
          (dropout): Dropout(p=0.0, inplace=False)
          (ln_2): LayerNorm((768,), eps=1e-06, elementwise_affine=True)
          (mlp): MLPBlock(
            (0): Linear(in_features=768, out_features=3072, bias=True)
            (1): GELU(approximate='none')
            (2): Dropout(p=0.0, inplace=False)
            (3): Linear(in_features=3072, out_features=768, bias=True)
            (4): Dropout(p=0.0, inplace=False)
          )
        )
        (encoder_layer_4): EncoderBlock(
          (ln_1): LayerNorm((768,), eps=1e-06, elementwise_affine=True)
          (self_attention): MultiheadAttention(
            (out_proj): NonDynamicallyQuantizableLinear(in_features=768, out_features=768, bias=True)
          )
          (dropout): Dropout(p=0.0, inplace=False)
          (ln_2): LayerNorm((768,), eps=1e-06, elementwise_affine=True)
          (mlp): MLPBlock(
            (0): Linear(in_features=768, out_features=3072, bias=True)
            (1): GELU(approximate='none')
            (2): Dropout(p=0.0, inplace=False)
            (3): Linear(in_features=3072, out_features=768, bias=True)
            (4): Dropout(p=0.0, inplace=False)
          )
        )
        (encoder_layer_5): EncoderBlock(
          (ln_1): LayerNorm((768,), eps=1e-06, elementwise_affine=True)
          (self_attention): MultiheadAttention(
            (out_proj): NonDynamicallyQuantizableLinear(in_features=768, out_features=768, bias=True)
          )
          (dropout): Dropout(p=0.0, inplace=False)
          (ln_2): LayerNorm((768,), eps=1e-06, elementwise_affine=True)
          (mlp): MLPBlock(
            (0): Linear(in_features=768, out_features=3072, bias=True)
            (1): GELU(approximate='none')
            (2): Dropout(p=0.0, inplace=False)
            (3): Linear(in_features=3072, out_features=768, bias=True)
            (4): Dropout(p=0.0, inplace=False)
          )
        )
        (encoder_layer_6): EncoderBlock(
          (ln_1): LayerNorm((768,), eps=1e-06, elementwise_affine=True)
          (self_attention): MultiheadAttention(
            (out_proj): NonDynamicallyQuantizableLinear(in_features=768, out_features=768, bias=True)
          )
          (dropout): Dropout(p=0.0, inplace=False)
          (ln_2): LayerNorm((768,), eps=1e-06, elementwise_affine=True)
          (mlp): MLPBlock(
            (0): Linear(in_features=768, out_features=3072, bias=True)
            (1): GELU(approximate='none')
            (2): Dropout(p=0.0, inplace=False)
            (3): Linear(in_features=3072, out_features=768, bias=True)
            (4): Dropout(p=0.0, inplace=False)
          )
        )
        (encoder_layer_7): EncoderBlock(
          (ln_1): LayerNorm((768,), eps=1e-06, elementwise_affine=True)
          (self_attention): MultiheadAttention(
            (out_proj): NonDynamicallyQuantizableLinear(in_features=768, out_features=768, bias=True)
          )
          (dropout): Dropout(p=0.0, inplace=False)
          (ln_2): LayerNorm((768,), eps=1e-06, elementwise_affine=True)
          (mlp): MLPBlock(
            (0): Linear(in_features=768, out_features=3072, bias=True)
            (1): GELU(approximate='none')
            (2): Dropout(p=0.0, inplace=False)
            (3): Linear(in_features=3072, out_features=768, bias=True)
            (4): Dropout(p=0.0, inplace=False)
          )
        )
        (encoder_layer_8): EncoderBlock(
          (ln_1): LayerNorm((768,), eps=1e-06, elementwise_affine=True)
          (self_attention): MultiheadAttention(
            (out_proj): NonDynamicallyQuantizableLinear(in_features=768, out_features=768, bias=True)
          )
          (dropout): Dropout(p=0.0, inplace=False)
          (ln_2): LayerNorm((768,), eps=1e-06, elementwise_affine=True)
          (mlp): MLPBlock(
            (0): Linear(in_features=768, out_features=3072, bias=True)
            (1): GELU(approximate='none')
            (2): Dropout(p=0.0, inplace=False)
            (3): Linear(in_features=3072, out_features=768, bias=True)
            (4): Dropout(p=0.0, inplace=False)
          )
        )
        (encoder_layer_9): EncoderBlock(
          (ln_1): LayerNorm((768,), eps=1e-06, elementwise_affine=True)
          (self_attention): MultiheadAttention(
            (out_proj): NonDynamicallyQuantizableLinear(in_features=768, out_features=768, bias=True)
          )
          (dropout): Dropout(p=0.0, inplace=False)
          (ln_2): LayerNorm((768,), eps=1e-06, elementwise_affine=True)
          (mlp): MLPBlock(
            (0): Linear(in_features=768, out_features=3072, bias=True)
            (1): GELU(approximate='none')
            (2): Dropout(p=0.0, inplace=False)
            (3): Linear(in_features=3072, out_features=768, bias=True)
            (4): Dropout(p=0.0, inplace=False)
          )
        )
        (encoder_layer_10): EncoderBlock(
          (ln_1): LayerNorm((768,), eps=1e-06, elementwise_affine=True)
          (self_attention): MultiheadAttention(
            (out_proj): NonDynamicallyQuantizableLinear(in_features=768, out_features=768, bias=True)
          )
          (dropout): Dropout(p=0.0, inplace=False)
          (ln_2): LayerNorm((768,), eps=1e-06, elementwise_affine=True)
          (mlp): MLPBlock(
            (0): Linear(in_features=768, out_features=3072, bias=True)
            (1): GELU(approximate='none')
            (2): Dropout(p=0.0, inplace=False)
            (3): Linear(in_features=3072, out_features=768, bias=True)
            (4): Dropout(p=0.0, inplace=False)
          )
        )
        (encoder_layer_11): EncoderBlock(
          (ln_1): LayerNorm((768,), eps=1e-06, elementwise_affine=True)
          (self_attention): MultiheadAttention(
            (out_proj): NonDynamicallyQuantizableLinear(in_features=768, out_features=768, bias=True)
          )
          (dropout): Dropout(p=0.0, inplace=False)
          (ln_2): LayerNorm((768,), eps=1e-06, elementwise_affine=True)
          (mlp): MLPBlock(
            (0): Linear(in_features=768, out_features=3072, bias=True)
            (1): GELU(approximate='none')
            (2): Dropout(p=0.0, inplace=False)
            (3): Linear(in_features=3072, out_features=768, bias=True)
            (4): Dropout(p=0.0, inplace=False)
          )
        )
      )
      (ln): LayerNorm((768,), eps=1e-06, elementwise_affine=True)
    )
    (heads): Sequential(
      (head): Linear(in_features=768, out_features=100, bias=True)
    )
  )
)

https://github.com/jeonsworld/ViT-pytorch/blob/main/models/configs.py

def get_b16_config():
    """Returns the ViT-B/16 configuration."""
    config = ml_collections.ConfigDict()
    config.patches = ml_collections.ConfigDict({'size': (16, 16)})
    config.hidden_size = 768
    config.transformer = ml_collections.ConfigDict()
    config.transformer.mlp_dim = 3072
…
